models/GRU_4l_16h.pt (torch, 69993 bytes, 34 tensors)

rnn.weight_ih_l0 f4 [48, 1]
-0.052923664 -0.11027583 -0.011596406 0.3180876 -0.17213945 -0.1555642 -0.57374185 0.07887969
-0.114012435 -0.037899982 -0.036924537 -0.093922734 -0.035895113 -0.11583241 0.06400304 0.019020656
-0.018953841 0.041018542 0.12749115 0.058439553 -0.15642762 -0.1354035 -0.061181646 0.023703411
0.054238696 -0.018960524 -0.06238926 -0.1336129 -0.16239564 -0.0075813807 0.24778786 0.0027225078
0.0473465 -0.08462341 0.02918691 -0.06615236 -0.04965536 -0.017924443 0.031006822 0.116895765
-0.07441763 -0.0907451 0.07244057 -0.367774 -0.017056419 0.033393066 0.15932626 -0.06395912
00000000: 7cc6 58bd 4bd8 e1bd dafe 3dbc 61dc a23e
00000010: 5345 30be 394c 1fbe bfe0 12bf ad8b a13d
00000020: 5a7f e9bd 033d 1bbd 2f3e 17bd 905a c0bd
00000030: c106 13bd 8b39 edbd 0714 833d 35d1 9b3c
00000040: 1645 9bbc 0f03 283d 0a8d 023e 505e 6f3d
00000050: 902e 20be 37a7 0abe 9b99 7abd a82d c23c
00000060: 6529 5e3d 1a53 9bbc e18b 7fbd d2d1 08be
00000070: 0b4b 26be 3b6d f8bb 1abc 7d3e 1a6c 323b
00000080: 67ee 413d 0a4f adbd 6319 ef3c e37a 87bd
00000090: 6b63 4bbd 48d6 92bc 0502 fe3c 0c67 ef3d
000000a0: 4568 98bd 91d8 b9bd b95b 943d e04c bcbe
000000b0: e7b9 8bbc 2bc7 083d 6c26 233e 00fd 82bd

rnn.weight_hh_l0 f4 [48, 16]
0.21074924 0.16608942 -0.020647913 0.2207324 -0.13491465 0.30640304 0.08456693 0.0428275
0.25454092 0.28111318 -0.030703403 0.15780059 0.27496105 -0.086750366 -0.024343712 -0.13592425
-0.0368117 -0.341182 -0.21890594 -0.22967781 -0.08719227 0.5311809 0.06340455 -0.011621302
-0.27728248 -0.1406932 -0.09823604 0.07307263 0.0785274 0.33529103 -0.077959485 -0.07546424
-0.2564766 0.0072399783 0.18973581 0.17267942 -0.09514586 -0.09855848 0.013325928 0.18963696
0.21421058 0.03682296 -0.3066023 0.3172577 0.07731363 -0.28708896 0.16575365 -0.2757529
-0.22044523 0.009786764 0.14168835 0.4792127 -0.044927485 -0.08361734 -0.017531099 -0.14035998
-0.10200188 0.63101244 -0.05606693 -0.050424047 -0.06924335 -0.05902031 0.4087952 -0.5131692
0.022128914 0.24525793 0.20631903 -0.28151807 0.14627247 0.16011624 -0.30914718 -0.24915045
0.19938837 -0.12084756 0.09613998 0.22631569 0.053859014 0.18692526 -0.011680775 0.084836714
0.34940866 -0.41144916 -0.19761696 -0.4041174 -0.11130449 0.13130859 0.17243461 -0.19501662
-0.28282127 -0.36984178 0.2745878 -0.055713207 0.22637747 -0.07227981 0.18611233 0.087604135
-0.30160904 0.09757198 0.39496723 0.22070423 0.15148236 0.27261168 -0.59232694 -0.10102064
0.18088563 0.32052758 -0.13622727 0.07680089 0.31656322 -0.0702114 -0.36207998 -0.19218877
0.381946 -0.35186446 -0.16094615 0.07559697 0.055805862 -0.06402191 -0.51250786 -0.36542478
-0.43876028 -0.32587266 -0.021935878 -0.11347665 0.41728917 -0.13735272 0.4917691 -0.025507035
-0.023036273 -0.20518707 0.004459502 0.07506601 -0.33059347 0.050161753 0.20074147 -0.20533831
-0.2675847 0.22998714 0.09529535 -0.13254255 0.2578227 -0.09181101 0.32436797 0.2124969
-0.13947642 0.16354501 0.2275651 0.44094816 0.24836005 -0.105515905 -0.41369534 -0.30292103
0.028374601 0.0572712 0.01741699 0.15669912 0.24515212 -0.39917395 -0.4241324 -0.15725252
0.023305517 -0.1771962 -0.08714931 -0.089135416 -0.45056507 0.35339835 -0.04510429 0.038722277
0.05439267 -0.2911912 0.20020506 0.32741392 0.30562025 -0.08875902 0.40373355 -0.08007502
0.4097887 0.20909289 -0.38775033 -0.3811328 0.20649895 -0.050909344 -0.09451118 -0.07752208
0.11690964 -0.321808 0.19883473 0.093588606 0.032661386 -0.08347841 -0.103540614 0.21291609
0.11104118 -0.2845431 -0.007244644 -0.119534306 -0.15721865 0.08148473 0.008188918 -0.09703897
0.078812234 -0.71387494 0.22790748 -0.040265724 -0.12261061 0.12611897 0.6731742 -0.41502562
0.23189771 -0.22533576 -0.08649325 0.168905 -0.36302447 0.35654205 0.062723 -0.28507635
-0.148331 -0.075479336 -0.06074623 0.13668643 0.045080796 0.2033663 -0.10292453 0.04376889
-0.3634715 0.44893178 0.032183412 0.53851646 -0.27357972 -0.05940825 -0.31333217 -0.20013915
0.2459912 0.15267645 0.046885993 0.21015765 0.43660676 -0.60736525 0.20306337 0.1910922
0.042050373 0.0729789 0.1312778 0.22078644 -0.3352532 -0.18747751 -0.0804431 0.14028667
-0.022823064 -0.020540679 0.24183512 0.007596448 0.618665 -0.03061474 0.3188229 -0.49428195
00000000: a6ce 573e 5813 2a3e d025 a9bc ad07 623e
00000010: 1127 0abe dce0 9c3e 6d31 ad3d e36b 2f3d
00000020: 3053 823e 11ee 8f3e b485 fbbc 7a96 213e
00000030: b2c7 8c3e 2daa b1bd 776c c7bc ba2f 0bbe
00000040: ddc7 16bd 68af aebe e128 60be a930 6bbe
00000050: dc91 b2bd 79fb 073f 3fda 813d 4667 3ebc
00000060: f8f7 8dbe e111 10be fa2f c9bd 1aa7 953d
00000070: f9d2 a03d 44ab ab3e 39a9 9fbd ff8c 9abd
00000080: e750 83be 573d ed3b 1b4a 423e e0d2 303e
00000090: d5db c2bd 07d9 c9bd fe54 5a3c 3130 423e
000000a0: 055a 5b3e acd3 163d fafa 9cbe 9a6f a23e
000000b0: 9c56 9e3d 53fd 92be 53bb 293e 7c2f 8dbe
000000c0: 65bc 61be aa58 203c c016 113e 5e5b f53e
000000d0: e205 38bd 913f abbd 619d 8fbc 87ba 0fbe
000000e0: 5de6 d0bd 088a 213f 70a6 65bd 7289 4ebd
000000f0: 75cf 8dbd 48bf 71bd 9b4d d13e 0f5f 03bf
00000100: b247 b53c e524 7b3e 4c45 533e 2323 90be
00000110: 73c8 153e 83f5 233e 8a48 9ebe 4c21 7fbe
00000120: 772c 4c3e ed7e f7bd 0ae5 c43d 4dbf 673e
00000130: 459b 5c3d 5669 3f3e b960 3fbc dfbe ad3d
00000140: b1e5 b23e 77a9 d2be 1a5c 4abe 7ae8 cebe
00000150: 9cf3 e3bd c275 063e b392 303e 70b2 47be
00000160: f3cd 90be e75b bdbe c696 8c3e 8833 64bd
00000170: 7fcf 673e 7007 94bd 3b94 3e3e cc69 b33d
00000180: 806c 9abe d1d3 c73d 2539 ca3e 4a00 623e
00000190: 311e 1b3e c293 8b3e bda2 17bf e9e3 cebd
000001a0: 153a 393e 311c a43e 297f 0bbe c949 9d3d
000001b0: 9314 a23e ffca 8fbd 8c62 b9be 22cd 44be
000001c0: 6d8e c33e 9427 b4be 11cf 24be 96d2 9a3d
000001d0: b094 643d eb1d 83bd b733 03bf f518 bbbe
000001e0: 30a5 e0be c8d8 a6be dfb2 b3bc 7266 e8bd
000001f0: eda6 d53e 31a6 0cbe 29c9 fb3e 21f4 d0bc
00000200: 91b6 bcbc 8f1c 52be 0421 923b 35bc 993d
00000210: 8c43 a9be 6976 4d3d 2c8f 4d3e 3544 52be
00000220: dd00 89be c081 6b3e 352a c33d 3cb9 07be
00000230: 5601 843e 6907 bcbd 8f13 a63e ca98 593e
00000240: e8d2 0ebe 5878 273e d306 693e f5c3 e13e
00000250: 1952 7e3e b918 d8bd e0cf d3be 7718 9bbe
00000260: da71 e83c 3595 6a3d 13ae 8e3c bc75 203e
00000270: 2809 7b3e 8760 ccbe e227 d9be ce06 21be
00000280: 36eb be3c ec72 35be 567b b2bd a18c b6bd
00000290: 77b0 e6be a1f0 b43e 47bf 38bd 409b 1e3d
000002a0: d9ca 5e3d 0317 95be 8e02 4d3e cca2 a73e
000002b0: 427a 9c3e 4ac7 b5bd 2ab6 ce3e 5ffe a3bd
000002c0: d3cf d13e 721c 563e 3687 c6be d723 c3be
000002d0: 7674 533e 5186 50bd 148f c1bd e5c3 9ebd
000002e0: 526e ef3d 05c4 a4be 559b 4b3e 62ab bf3d
000002f0: f2c7 053d bbf6 aabd 1a0d d4bd ad06 5a3e
00000300: 8f69 e33d a2af 91be 7b64 edbb 67ce f4bd
00000310: edfd 20be 77e1 a63d d02a 063c 5ebc c6bd
00000320: 4f68 a13d 82c0 36bf 9460 693e aced 24bd
00000330: 461b fbbd 5525 013e 2555 2c3f 3d7e d4be
00000340: 9876 6d3e 6bbe 66be 6023 b1bd 6ff5 2c3e
00000350: 58de b9be ae8c b63e eb74 803d 87f5 91be
00000360: 15e4 17be e994 9abd 0ad1 78bd 87f7 0b3e
00000370: a4a6 383d 413f 503e 19ca d2bd 0247 333d
00000380: f018 babe 63da e53e c1d2 033d 37dc 093f
00000390: a412 8cbe 1156 73bd 136d a0be 47f1 4cbe
000003a0: 1ee5 7b3e 3757 1c3e 870b 403d 9133 573e
000003b0: ec8a df3e 4a7c 1bbf d8ef 4f3e acad 433e
000003c0: 033d 2c3d f675 953d b06d 063e d715 623e
000003d0: 4fa6 abbe 1bfa 3fbe 5abf a4bd 4fa7 0f3e
000003e0: 6ff7 babc ed44 a8bc a0a3 773e a0eb f83b
000003f0: d460 1e3f c3cb fabc c13c a33e 8612 fdbe

rnn.bias_ih_l0 f4 [48]
0.19641422 0.34058103 0.2711767 0.046940546 -0.060915627 0.052403174 -0.18987471 0.4780518
-0.1374329 0.17706655 -0.0032265466 -0.0022739319 0.25478995 0.09381932 0.044229567 0.35091725
0.12945929 0.22245935 -0.19113052 0.050302822 0.2969052 0.37033755 -0.34981352 -0.34991568
0.3151141 0.11282892 0.047132984 0.18377699 0.20658113 0.0073449733 -0.53813875 -0.89259434
0.1644386 -0.09062757 -0.30241576 0.054014046 -0.23540471 -0.09732852 -0.029009279 0.100917675
-0.15713532 0.0025112673 -0.052718647 0.013270448 -0.028946212 -0.34285662 -0.020018047 0.028221777
00000000: cf20 493e a360 ae3e acd7 8a3e bb44 403d
00000010: aa82 79bd b6a4 563d 846e 42be 35c3 f43e
00000020: 36bb 0cbe ef50 353e 7874 53bb 3f06 15bb
00000030: d473 823e 5824 c03d 102a 353d 6dab b33e
00000040: fa90 043e 62cc 633e b8b7 43be 550a 4e3d
00000050: f503 983e e29c bd3e c21a b3be 2628 b3be
00000060: a356 a13e d912 e73d 840e 413d 0930 3c3e
00000070: 018a 533e 1aae f03b 76c3 09bf 1081 64bf
00000080: 9862 283e f39a b9bd 3dd6 9abe d53d 5d3d
00000090: ef0d 71be 2d54 c7bd dea4 edbc edad ce3d
000000a0: 15e8 20be 1394 243b 82ef 57bd 4b6c 593c
000000b0: 9b20 edbc e78a afbe e3fc a3bc 5b31 e73c

rnn.bias_hh_l0 f4 [48]
0.29161173 0.078543335 0.3769938 0.19604282 0.14734888 0.2773473 -0.24910603 0.10835404
0.020272542 0.18952163 0.07010106 0.14594081 0.5175311 -0.020554481 0.28969806 0.22620074
-0.040713925 0.40121678 -0.10457941 0.22801736 0.21638717 -0.04674947 -0.30301678 -0.35268632
0.09044983 -0.109472744 0.35146302 0.043764096 0.069351435 -0.24886222 -0.21399896 -0.7686879
0.19273275 -0.12691316 -0.13247874 0.24194522 0.07036823 -0.22684802 0.051580954 0.12515377
-0.2583769 0.10966789 0.027832953 0.067729816 0.2751274 -0.115207024 0.20443256 0.12979859
00000000: 224e 953e 54db a03d 5505 c13e 73bf 483e
00000010: a0e2 163e 7700 8e3e a715 7fbe b9e8 dd3d
00000020: 9a12 a63c f511 423e 2591 8f3d 8271 153e
00000030: eb7c 043f df61 a8bc 4e53 943e 2ba1 673e
00000040: a5c3 26bd 496c cd3e bb2d d6bd 627d 693e
00000050: 9994 5d3e 5f7c 3fbd 0425 9bbe 4d93 b4be
00000060: c33d b93d 3f33 e0bd f6f2 b33e fb41 333d
00000070: 2008 8e3d bdd5 7ebe 8b22 5bbe bbc8 44bf
00000080: bc5b 453e 86f5 01be 82a8 07be 7dc0 773e
00000090: 381d 903d d94a 68be 8d46 533d 4f28 003e
000000a0: fa49 84be 8f99 e03d ef01 e43c eeb5 8a3d
000000b0: 80dd 8c3e a9f1 ebbd c556 513e ece9 043e

rnn.weight_ih_l0_reverse f4 [48, 1]
0.11781741 -0.009929619 0.12628701 -0.20484398 0.16474889 0.05082035 0.0608726 0.07496896
-0.04324883 -0.4158004 -0.07517124 -0.01849176 -0.11674577 0.071950965 0.059199546 -0.07365851
-0.028591746 0.2578349 0.06662946 -0.00730881 -0.08616565 0.052170098 -0.017205128 -0.22117986
0.40546274 -0.0729729 0.22435369 -0.05059837 0.11315217 -0.07609327 0.024615169 0.1131146
0.12462874 -0.15630744 -0.24435122 0.04603282 -0.031497583 0.10716003 -0.09833573 0.17978974
0.1297894 0.004533639 -0.23484762 0.07909981 0.17602195 -0.06793594 0.19513203 -0.23928607
00000000: 414a f13d d7af 22bc 6251 013e 9fc2 51be
00000010: efb3 283e 0029 503d 8c55 793d 5389 993d
00000020: af25 31bd cae3 d4be 61f3 99bd 087c 97bc
00000030: 6818 efbd 075b 933d 397b 723d 46da 96bd
00000040: 3d39 eabc f002 843e 0775 883d be7e efbb
00000050: 9e77 b0bd 50b0 553d c5f1 8cbc f97c 62be
00000060: d098 cf3e d172 95bd f9bc 653e 3d40 4fbd
00000070: 53bc e73d cad6 9bbd c0a5 c93c a1a8 e73d
00000080: 5a3d ff3d 0f0f 20be 3537 7abe e98c 3c3d
00000090: 9c03 01bd b876 db3d 3e64 c9bd cd1a 383e
000000a0: 83e7 043e ec8e 943b e57b 70be 15ff a13d
000000b0: 193f 343e 0022 8bbd b1d0 473e 6807 75be

rnn.weight_hh_l0_reverse f4 [48, 16]
0.179179 0.23647514 0.20520222 0.1452749 0.10279092 -0.33710983 0.15688077 0.24288726
0.17974295 0.059677 -0.045806188 -0.3814753 -0.3261698 -0.08430753 -0.34626237 0.0781535
-0.045742445 -0.054069456 -0.25059152 -0.013770107 -0.28780767 0.021510977 -0.33128527 -0.10276066
-0.15353034 -0.2847647 -0.13311155 0.1907268 -0.16734682 0.15158488 0.27428302 0.06971793
0.09389601 0.29899344 0.04032179 0.18027452 -0.14306125 0.12286603 -0.08240835 0.36299297
-0.1741018 0.41657752 0.10209997 -0.26154745 -0.4320329 -0.3138929 0.12859 0.07387226
0.21765211 0.15677935 0.07162901 0.010320915 0.37885517 0.14526655 -0.037338737 0.23582864
0.3464089 0.12585595 -0.105507456 -0.2287824 0.23712067 -0.03270138 -0.11897073 -0.3182021
-0.021948112 0.12902595 -0.10123066 -0.009283879 0.0034969265 -0.3390597 -0.13188739 -0.2933974
0.18991083 0.0839475 -0.12921374 -0.14515729 0.33692956 -0.27507204 0.15159838 0.16426323
0.15209466 -0.12073718 0.32720453 -0.35625046 -0.056358706 -0.050462287 0.17339192 -0.047915287
-0.045973126 -0.06660746 -0.21922708 0.009683798 0.23789835 -0.13708308 -0.21066877 0.35081318
0.03612075 -0.024337681 -0.045482777 0.1293795 0.21609573 0.29496586 0.13474679 -0.12672664
0.055985846 -0.22525154 -0.24508168 -0.16744523 -0.052533288 -0.21754266 0.42851773 -0.34775674
-0.029887874 -0.38921297 -0.15122035 -0.17587195 0.18527159 0.050267648 0.025591731 -0.3391877
0.13808955 -0.18719143 0.19766574 0.035272583 0.25734532 0.025683044 -0.009418552 -0.16899478
-0.08299012 -0.114846475 0.044872966 -0.1875302 0.094884954 -0.018304704 0.2537425 -0.19461511
-0.024688506 0.21896796 0.32744145 -0.07519481 -0.13260399 0.28623605 -0.28188786 -0.0052657933
0.25523227 0.34560645 0.12879384 0.13643801 -0.29767048 0.057832092 0.15023668 0.12463464
0.1719859 0.2762689 0.038307812 -0.48100194 -0.32986292 -0.44680485 0.1181282 -0.061813124
-0.0638596 0.12884486 -0.38915887 0.13758771 -0.006566122 -0.14116848 -0.2265833 0.09290009
-0.05880006 0.5269807 0.2610706 -0.44345504 -0.11209446 -0.22227761 0.28415665 -0.20335443
0.49487904 0.14777797 0.19365065 0.21209113 -0.24095848 -0.27947354 -0.38142252 0.072256476
0.17955357 -0.0703741 0.4668415 0.09217985 0.30766028 -0.18494524 0.028553177 0.45112568
0.103414826 -0.20938593 0.15637511 0.021650031 0.0027578094 -0.2937336 0.16397205 -0.37080625
0.42516756 -0.1570223 0.22444998 -0.40142694 0.13854823 -0.15869753 -0.20925403 0.033115566
0.13559364 -0.03652818 -0.1433698 -0.043097686 -0.13329698 -0.04380406 -0.20599209 0.45064405
0.14265887 0.36598918 0.024603244 -0.36314687 -0.041678097 -0.1892264 -0.121152826 -0.20571995
0.24992712 -0.31241605 -0.3042402 0.2972601 -0.28086045 0.14386222 0.029585406 0.25307155
0.083152376 0.17009236 0.26257592 -0.04242438 -0.030246828 -0.32538936 -0.046792757 -0.18682194
-0.08543834 -0.008572093 -0.051432356 -0.31671327 0.33695617 -0.13607861 0.2948125 -0.08576453
-0.5193657 -0.24615355 0.25779727 -0.09093803 -0.20313877 0.41033098 -0.2530216 0.058793485
00000000: b37a 373e 8a26 723e 8820 523e f2c2 143e
00000010: 0c84 d23d a999 acbe 5aa5 203e 70b7 783e
00000020: 890e 383e df6f 743d 459f 3bbd bb50 c3be
00000030: baff a6be 6da9 acbd 4d49 b1be f10e a03d
00000040: 6e5c 3bbd ef77 5dbd 884d 80be 049c 61bc
00000050: 875b 93be ca37 b03c 399e a9be 2e74 d2bd
00000060: 0f37 1dbe aecc 91be 654e 08be e34d 433e
00000070: f75c 2bbe 1139 1b3e d36e 8c3e 46c8 8e3d
00000080: 8d4c c03d ab15 993e 7628 253d e299 383e
00000090: a67e 12be 2fa1 fb3d b6c5 a8bd 37da b93e
000000a0: be47 32be a649 d53e ca19 d13d 8ce9 85be
000000b0: 6b33 ddbe 92b6 a0be 19ad 033e 574a 973d
000000c0: 32e0 5e3e c48a 203e 3bb2 923d 0e19 293c
000000d0: 4ef9 c13e c1c0 143e 81f0 18bd 107d 713e
000000e0: 825c b13e 62e0 003e 4b14 d8bd ef45 6abe
000000f0: c3cf 723e e2f1 05bd eda6 f3bd 63eb a2be
00000100: 87cc b3bc 611f 043e 0552 cfbd 691b 18bc
00000110: b12c 653b 3c99 adbe 7d0d 07be 2f38 96be
00000120: fc77 423e abec ab3d 9b50 04be 1da4 14be
00000130: 0882 ac3e 3ed6 8cbe 9b3c 1b3e 9f34 283e
00000140: b4be 1b3e 0e45 f7bd 5a87 a73e 7666 b6be
00000150: 63d8 66bd 8bb1 4ebd a78d 313e d242 44bd
00000160: 514e 3cbd 7e69 88bd 107d 60be cba8 1e3c
00000170: a09b 733e 825f 0cbe 8eb9 57be c99d b33e
00000180: 5af3 133d d15f c7bc 264c 3abd 0f7c 043e
00000190: 3348 5d3e c405 973e 10fb 093e a1c4 01be
000001a0: 6a51 653d 57a8 66be b1f6 7abe c376 2bbe
000001b0: 252d 57bd 81c3 5ebe ad66 db3e 2c0d b2be
000001c0: 6ad7 f4bc ec46 c7be 82d9 1abe c717 34be
000001d0: d6b7 3d3e 73e5 4d3d c0a5 d13c 03aa adbe
000001e0: 5967 0d3e 1caf 3fbe e368 4a3e fc79 103d
000001f0: c4c2 833e 3f65 d23c 4550 1abc f80c 2dbe
00000200: b9f6 a9bd a134 ebbd b7cc 373d eb07 40be
00000210: 0b53 c23d bff3 95bc 89ea 813e 2f49 47be
00000220: 8d3f cabc 2339 603e 68a6 a73e bdff 99bd
00000230: 57c9 07be 888d 923e 9b53 90be ad8c acbb
00000240: cead 823e 54f3 b03e 88e2 033e 68b6 0b3e
00000250: 4468 98be 58e1 6c3d a5d7 193e 7240 ff3d
00000260: 121d 303e 1e73 8d3e a7e8 1c3d e345 f6be
00000270: cbe3 a8be 9bc3 e4be 33ed f13d c22f 7dbd
00000280: d2c8 82bd e8ef 033e d53f c7be cbe3 0c3e
00000290: a028 d7bb 788e 10be 7405 68be 6742 be3d
000002a0: 55d8 70bd 35e8 063f 0cab 853e 8a0c e3be
000002b0: c891 e5bd be9c 63be fb7c 913e 253c 50be
000002c0: c960 fd3e 1c53 173e 5b4c 463e 6b2e 593e
000002d0: d2bd 76be 2817 8fbe d049 c3be 34fb 933d
000002e0: e4dc 373e 4c20 90bd d905 ef3e cac8 bc3d
000002f0: a685 9d3e 4962 3dbe 5ae8 e93c f2f9 e63e
00000300: 27cb d33d 4469 56be cc20 203e 685b b13c
00000310: 5dbc 343b 4064 96be 4ae8 273e 51da bdbe
00000320: 90af d93e 74ca 20be 37d6 653e d587 cdbe
00000330: 96df 0d3e 9b81 22be b046 56be 30a4 073d
00000340: 0fd9 0a3e 939e 15bd 88cf 12be 3387 30bd
00000350: 017f 08be e36b 33bd 97ef 52be d1ba e63e
00000360: 2b15 123e ef62 bb3e be8c c93c 63ee b9be
00000370: a7b6 2abd 91c4 41be f91e f8bd 40a8 52be
00000380: e5ec 7f3e fff4 9fbe 5fc5 9bbe 7a32 983e
00000390: f1cc 8fbe 9e50 133e 185d f23c 9892 813e
000003a0: cb4b aa3d b12c 2e3e 5a70 863e 30c5 2dbd
000003b0: 32c8 f7bc 6f99 a6be c3a9 3fbd 404e 3fbe
000003c0: 4cfa aebd f771 0cbc bcaa 52bd 3e28 a2be
000003d0: 8585 ac3e 3158 0bbe aaf1 963e 50a5 afbd
000003e0: 27f5 04bf ad0f 7cbe 01fe 833e b83d babd
000003f0: 9c03 50be e716 d23e 0c8c 81be 70d1 703d

rnn.bias_ih_l0_reverse f4 [48]
-0.08397551 -0.033074774 -0.10384244 0.20459533 0.15009502 0.008181638 -0.27589357 0.053166293
0.14526115 0.14927064 0.05003756 0.26412892 0.03659787 0.041652977 0.04397595 0.11523003
-0.29060605 -0.17362604 -0.23787048 0.15055352 0.06742799 -0.06558114 0.17053097 0.3812461
-0.16691633 0.07390214 -0.13808538 -0.46182445 -0.24312034 -0.15056139 0.4146955 -0.13633893
0.27077043 -0.06465746 -0.2512366 -0.13927925 0.12715939 -0.3133401 -0.07022913 0.018163577
0.21516524 0.229518 0.36287215 -0.37052572 0.09503791 -0.30489454 0.14867386 0.047576133
00000000: 5afb abbd 6a79 07bd 58ab d4bd 7081 513e
00000010: 82b2 193e 470c 063c ec41 8dbe e6c4 593d
00000020: 57bf 143e 67da 183e 2ff4 4c3d e83b 873e
00000030: a6e7 153d 509c 2a3d 2020 343d b9fd eb3d
00000040: 51ca 94be 06cb 31be 5294 73be b42a 1a3e
00000050: b017 8a3d 684f 86bd ac9f 2e3e b032 c33e
00000060: 1dec 2abe 015a 973d 4166 0dbe 4174 ecbe
00000070: 8af4 78be c42c 1abe f852 d43e 6f9c 0bbe
00000080: 6ca2 8a3e 216b 84bd 15a2 80be 389f 0ebe
00000090: 1236 023e 1d6e a0be 4ad4 8fbd c8cb 943c
000000a0: 4754 5c3e c406 6b3e 61ca b93e 8cb5 bdbe
000000b0: 3ca3 c23d 231b 9cbe f63d 183e 31df 423d

rnn.bias_hh_l0_reverse f4 [48]
0.06989524 0.17053184 -0.07759815 0.2818705 0.32215595 0.08682134 0.102529846 0.24669583
-0.05231672 0.1487315 -0.047393236 0.26810426 0.04952674 0.11966651 -0.09315658 -0.14086033
-0.40222216 0.0075435312 0.005833486 0.008607388 0.26241934 -0.031833813 -0.12313311 0.41893625
-0.13443357 0.00065646565 0.07623587 -0.6810938 -0.19908519 -0.22257973 -0.036353853 0.012388672
0.22961113 -0.015411141 0.02557165 -0.19983867 0.07536297 0.092108816 0.028015466 -0.21118595
0.34018067 0.13846196 0.07357161 -0.2143473 -0.108485654 -0.14277953 0.11501226 -0.032296322
00000000: 3c25 8f3d e69f 2e3e c7eb 9ebd 5551 903e
00000010: a0f1 a43e 63cf b13d 2bfb d13d d59d 7c3e
00000020: 0f4a 56bd 124d 183e 691f 42bd f644 893e
00000030: 8ddc 4a3d b713 f53d e1c8 bebd b13d 10be
00000040: 10f0 cdbe ba2f f73b d426 bf3b 0006 0d3c
00000050: d45b 863e 2c64 02bd 362d fcbd d07e d63e
00000060: f4a8 09be aa16 2c3a 8d21 9c3d 2a5c 2ebf
00000070: fddc 4bbe f1eb 63be c7e7 14bd dbf9 4a3c
00000080: 2e1f 6b3e 037f 7cbc a37b d13c 82a2 4cbe
00000090: e757 9a3d 8ca3 bc3d b180 e53c 2141 58be
000000a0: 292c ae3e f9c8 0d3e b6ac 963d dc7d 5bbe
000000b0: ba2d debd cc34 12be 8c8b eb3d 2649 04bd

rnn.weight_ih_l1 f4 [48, 32]
-0.15732309 0.16772072 -0.037779186 0.29853064 0.14164948 -0.005257074 0.088003874 -0.19499402
0.20345749 -0.14246385 -0.080272004 0.046839662 -0.31888607 0.17872399 -0.047666855 0.25369298
-0.14469512 0.45980972 0.1177689 0.40316427 0.04590881 -0.09882702 0.13950615 0.10039078
-0.24213494 0.10045029 0.034336235 0.06699904 -0.0693052 -0.17185594 0.33563402 0.2625465
-0.32622606 -0.16362569 0.26219487 -0.09542395 0.18842074 0.20615993 -0.101892 -0.07822962
-0.11687318 0.28278494 -0.32654697 0.21993516 -0.08551653 -0.029222788 -0.0055143656 -0.22964478
0.12518089 0.36291304 -0.08488957 -0.047302824 0.023181768 -0.0700643 -0.15223354 0.13443291
-0.20188959 0.043824192 0.056900986 0.04571797 -0.102750085 0.040262878 0.11519894 0.11289275
-0.21248119 0.104839735 -0.033263654 -0.011010655 0.529547 -0.060448814 -0.111357465 -0.11475839
0.2244331 -0.20398904 -0.090013534 0.115917 -0.0634432 -0.3516295 0.39956364 0.096673325
0.43866134 -0.09890653 0.010003664 -0.3971301 -0.06172772 -0.2907105 -0.053633593 0.022267608
0.5144995 -0.31391883 0.05550244 -0.085978344 0.18183021 0.10094779 0.034681257 -0.16246474
0.13967435 0.036686845 -0.22465906 0.22421262 -0.35459834 0.13523576 0.03360215 0.13432673
-0.32685545 -0.015451159 0.23056531 0.079877704 0.14895551 -0.23479675 -0.18586504 -0.1997797
-0.037077073 -0.10776968 -0.22079968 -0.06016848 -0.19677988 0.009579952 -0.04905912 0.09560228
-0.021372892 0.16384856 0.018379658 0.11558114 -0.21084401 -0.29527664 0.21232846 -0.18212472
0.2065046 -0.04637011 0.23427542 -0.1335748 -0.24114104 0.2313959 0.11730391 -0.15313026
-0.21759568 -0.24666129 -0.13188386 0.19591329 0.08723936 0.104854256 0.35036942 -0.46725592
-0.06044215 -0.11154697 -0.21826303 0.17743137 -0.1639909 -0.26102957 -0.07000679 0.15902089
0.113141224 0.07635577 0.2829284 0.04994622 -0.053457163 -0.3269842 0.051570315 -0.18662941
-0.02188225 -0.16009365 0.4070717 -0.24305516 0.14037691 0.011371665 0.2489859 0.2608231
-0.18205862 -0.3620215 -0.024395108 0.2116066 -0.005559446 -0.2669303 0.7967888 -0.27903482
0.6161711 -0.14461577 -0.28156838 -0.0854731 0.021915767 -0.024659326 -0.23390576 -0.22177087
0.28190666 -0.18172614 0.19221433 0.21910438 0.12559953 -0.3277386 0.034036066 -0.19091605
-0.15617274 -0.26754355 -0.18784596 -0.14745842 -0.28117043 0.11719616 -0.2074215 -0.06670101
-0.10852354 -0.04468075 -0.13631676 0.107908316 0.37662342 0.09343125 0.30140188 0.25551507
0.28532887 -0.1893004 -0.27602333 0.5217484 -0.262642 -0.049267866 0.09063195 0.22404121
0.10789125 0.1476293 -0.007736885 -0.07951887 -0.04687087 0.13860469 0.080248326 -0.31617427
0.22886236 0.050220866 -0.10925782 -0.14910753 0.09577552 0.057404518 0.07739084 -0.03326681
0.20731275 0.14897585 0.032104757 0.13690706 -0.11347535 0.042243686 0.10924882 -0.15424588
-0.14449114 0.4085039 0.26865017 -0.26872605 -0.09015672 -0.27713457 -0.00846634 0.10113275
0.08401331 -0.16693072 0.30681962 -0.07541825 -0.024449658 -0.09518377 -0.016639385 0.1929774
00000000: 4e19 21be fbbe 2b3e 59be 1abd 02d9 983e
00000010: 900c 113e 8843 acbb 603b b43d 83ac 47be
00000020: 2957 503e 0be2 11be a665 a4bd f2da 3f3d
00000030: 0945 a3be 6c03 373e 523e 43bd 0ce4 813e
00000040: f52a 14be 2e6c eb3e d230 f13d 8c6b ce3e
00000050: e00a 3c3d d265 cabd b3da 0e3e ae99 cd3d
00000060: 39f2 77be e2b8 cd3d 27a4 0c3d cb36 893d
00000070: e2ef 8dbd 01fb 2fbe 39d8 ab3e 7f6c 863e
00000080: 1a07 a7be 7e8d 27be 683e 863e a26d c3bd
00000090: 5ef1 403e 971b 533e c1ac d0bd da36 a0bd
000000a0: 355b efbd 30c9 903e 2a31 a7be af36 613e
000000b0: 4a23 afbd a164 efbc dab1 b4bb 0028 6bbe
000000c0: 6b2f 003e bdcf b93e 95da adbd 9bc0 41bd
000000d0: b1e7 bd3c df7d 8fbd 1ce3 1bbe c8a8 093e
000000e0: 25bc 4ebe ff80 333d 0211 693d c442 3b3d
000000f0: a36e d2bd b0ea 243d 6ced eb3d 5034 e73d
00000100: ab94 59be 37b6 d63d 783f 08bd 0966 34bc
00000110: 6490 073f 2d99 77bd 620f e4bd 7206 ebbd
00000120: cad1 653e 81e2 50be 0459 b8bd e465 ed3d
00000130: 82ee 81bd c808 b4be 9b93 cc3e aafc c53d
00000140: 3898 e03e 828f cabd 68e6 233c a354 cbbe
00000150: 35d6 7cbd 02d8 94be e6ae 5bbd 8f6a b63c
00000160: 3db6 033f f8b9 a0be 8756 633d 6a15 b0bd
00000170: b331 3a3e b7bd ce3d ef0d 0e3d 285d 26be
00000180: cb06 0f3e f244 163d 060d 66be fe97 653e
00000190: ea8d b5be 3e7b 0a3e 68a2 093d f28c 093e
000001a0: 9959 a7be dc26 7dbc 5019 6c3e ec96 a33d
000001b0: cb87 183e 8f6e 70be 6853 3ebe 0d93 4cbe
000001c0: 21de 17bd 5ab6 dcbd 5019 62be 3973 76bd
000001d0: aa80 49be 3bf5 1c3c 37f2 48bd 21cb c33d
000001e0: 3416 afbc ebc7 273e f090 963c ceb5 ec3d
000001f0: 7ee7 57be 802e 97be a26c 593e e77e 3abe
00000200: f175 533e 96ee 3dbd e5e5 6f3e d5c7 08be
00000210: aded 76be 0cf3 6c3e 083d f03d 2ece 1cbe
00000220: 67d1 5ebe c794 7cbe 900c 07be 7e9d 483e
00000230: 8daa b23d d4bd d63d 9f63 b33e 2b3c efbe
00000240: 3092 77bd bd72 e4bd 5880 5fbe 92b0 353e
00000250: 3bed 27be aba5 85be b85f 8fbd 5fd6 223e
00000260: 96b6 e73d 6a60 9c3d fedb 903e 6894 4c3d
00000270: e6f5 5abd 796a a7be 653b 533d c81b 3fbe
00000280: 6842 b3bc 97ef 23be b46b d03e 74e3 78be
00000290: f7be 0f3e 3850 3a3c 29f6 7e3e 9b8a 853e
000002a0: 936d 3abe e25a b9be 40d8 c7bc 67af 583e
000002b0: 032c b6bb 17ab 88be 5afa 4b3f a7dd 8ebe
000002c0: 64bd 1d3f 2816 14be bb29 90be 850c afbd
000002d0: b288 b33c 5b02 cabc fe84 6fbe e717 63be
000002e0: 1256 903e 6b16 3abe d5d3 443e e65c 603e
000002f0: 2a9d 003e 5bcd a7be 6769 0b3d 7f7f 43be
00000300: bfeb 1fbe 78fb 88be b15a 40be 57ff 16be
00000310: 92f5 8fbe 8a04 f03d 4d66 54be 8a9a 88bd
00000320: 9741 debd 2a03 37bd 9f96 0bbe 09ff dc3d
00000330: c9d4 c03e e258 bf3d 5951 9a3e dfd2 823e
00000340: a016 923e f7d7 41be ee52 8dbe 4e91 053f
00000350: 0379 86be 1acd 49bd 3e9d b93d 0f6b 653e
00000360: 16f6 dc3d 232c 173e b285 fdbb cada a2bd
00000370: abfb 3fbd 63ee 0d3e 3c59 a43d 98e1 a1be
00000380: e55a 6a3e 65b4 4d3d 90c2 dfbd a5af 18be
00000390: f525 c43d 0021 6b3d 177f 9e3d c742 08bd
000003a0: cb49 543e 208d 183e 4780 033d 5d31 0c3e
000003b0: c465 e8bd b707 2d3d d8bd df3d a2f2 1dbe
000003c0: 7cf5 13be 6c27 d13e 848c 893e 7696 89be
000003d0: 16a4 b8bd 95e4 8dbe 67b6 0abc b01e cf3d
000003e0: 2c0f ac3d e3ef 2abe 7617 9d3e e274 9abd
000003f0: a64a c8bc b5ef c2bd 524f 88bc de9b 453e

rnn.weight_hh_l1 f4 [48, 16]
0.10613684 0.1547293 0.11230523 0.029823212 -0.16613649 -0.18996291 0.2802327 -0.41824657
0.095695585 0.0076138363 0.0045728264 -0.23119149 0.10692016 -0.06373522 0.008057919 -0.078945585
0.11120378 0.3339514 0.18743937 0.30914998 0.1340645 -0.10841406 0.107346356 -0.12982212
-0.34538487 0.013704876 0.027137794 -0.2629775 -0.3459133 0.08362158 -0.48865855 0.29332325
-0.0780915 0.1543239 0.27722812 0.19508448 -0.42291564 -0.09887208 0.00686769 -0.057260733
0.07590143 0.2832022 0.12024835 -0.030875754 0.20216724 0.005067887 -0.16523919 0.1525506
0.042179495 -0.17595023 -0.2576937 0.15639238 0.076210596 0.040705632 0.14090754 0.008018707
-0.15552674 0.11352049 0.3649391 -0.16799757 -0.1760137 0.1230179 -0.28199577 -0.35212094
0.10687658 0.25012344 0.32720295 0.14322563 0.45801485 0.12727012 0.2802917 0.005376456
-0.09531957 -0.47774246 0.22980736 0.10368104 0.093255386 -0.07219001 -0.23670949 -0.15390188
-0.21211585 0.14290844 0.36052248 -0.051429998 0.3247227 0.16462386 0.14026484 -0.12492522
0.12708774 -0.1232906 -0.14468707 0.012593418 -0.07328484 -0.19822319 -0.01930291 0.32954696
-0.050455935 -0.21607205 0.008871586 0.09957942 0.23900019 -0.34178728 0.09076688 0.13166639
-0.05319668 -0.3371686 0.19138336 0.056468934 -0.121901155 0.02961693 0.029377274 -0.13336585
-0.32053053 -0.1186682 0.20451173 0.16133112 -0.15912524 0.13116848 0.04435272 0.119789936
0.0073261047 -0.1941783 -0.13006307 -0.019161455 -0.20207441 -0.14641324 0.09935397 -0.04795005
0.03185197 -0.04640752 0.23708485 -0.18105355 -0.20853712 0.25440252 -0.04286318 -0.08644857
0.1214673 -0.0013591963 0.20344894 -0.259463 0.25485358 0.3684628 -0.24604936 -0.33549058
-0.06567505 0.24886163 0.41787478 -0.040362205 -0.017440815 0.065261446 -0.3554006 0.19384865
-0.10346726 -0.20284991 -0.1228411 -0.042492382 0.013277616 -0.10933888 -0.14166845 0.030227702
-0.21091628 0.29027846 -0.039147362 -0.033280637 0.09820618 0.13422708 0.02743369 0.2699751
-0.09533473 -0.1475573 0.016602263 -0.12946337 -0.38797882 -0.09418743 -0.26214433 -0.009933353
-0.22873901 0.11581491 0.39216572 -0.08662232 0.3176466 0.3250913 0.045382198 -0.25762352
-0.06308277 -0.31732854 0.09989644 -0.21775192 -0.17585972 0.051956344 0.18159617 0.10188653
-0.01703341 -0.09149391 -0.06994357 -0.2804642 0.55606514 -0.42922282 -0.17618535 0.031862892
0.21667053 -0.50656575 -0.20187123 0.58502525 -0.14045587 0.055010866 -0.2649913 -0.32958072
0.18890113 0.039664973 0.28624865 -0.07326489 0.28978494 -0.17700711 0.29311085 -0.045961928
0.25000918 -0.41869694 0.17335269 0.02145291 0.46055058 0.06262122 -0.21003956 0.0048196674
0.041914377 -0.07925923 0.12576857 0.030743951 0.26121777 -0.13777271 0.0005519191 -0.12667017
-0.046313167 -0.46587148 -0.2854725 0.08295066 0.08116675 0.0036747141 -0.3437717 -0.2639779
-0.14275193 0.16539273 -0.019661307 -0.1713452 0.22749572 -0.049438294 0.07142532 -0.18689641
-0.11381639 -0.23542349 -0.33502948 0.043065708 0.193512 -0.051913984 0.021979773 0.09781778
00000000: 465e d93d 5c71 1e3e 4900 e63d cf4f f43c
00000010: af1f 2abe a385 42be a97a 8f3e 6a24 d6be
00000020: 0cfc c33d 7d7d f93b a6d7 953b 76bd 6cbe
00000030: f5f8 da3d 9c87 82bd 5d05 043c 39ae a1bd
00000040: cfbe e33d aefb aa3e 1bf0 3f3e e848 9e3e
00000050: 3448 093e 3108 debd 68d8 db3d 17f0 04be
00000060: 49d6 b0be 6b8a 603c 1450 de3c fda4 86be
00000070: 8c1b b1be ca41 ab3d 7431 fabe 772e 963e
00000080: 70ee 9fbd 1607 1e3e d8f0 8d3e 3ac4 473e
00000090: 6688 d8be 727d cabd 5c0a e13b 3b8a 6abd
000000a0: 3572 9b3d e1ff 903e c444 f63d 26ef fcbc
000000b0: ee04 4f3e 8410 a63b 7634 29be 3936 1c3e
000000c0: 68c4 2c3d 4c2c 34be 6ef0 83be 5325 203e
000000d0: 4d14 9c3d f3ba 263d 114a 103e e560 033c
000000e0: 6742 1fbe 6e7d e83d 4cd9 ba3e 8e07 2cbe
000000f0: ef3c 34be cff0 fb3d c061 90be 3249 b4be
00000100: 1ce2 da3d 2e10 803e 2587 a73e bda9 123e
00000110: ec80 ea3e 1953 023e 6582 8f3e fb2c b03b
00000120: e836 c3bd a99a f4be 9f52 6b3e ba56 d43d
00000130: aefc be3d 5bd8 93bd f963 72be 7498 1dbe
00000140: e634 59be 9756 123e 6796 b83e 43a8 52bd
00000150: 0e42 a63e 2893 283e 96a1 0f3e cbd8 ffbd
00000160: 4a23 023e c87f fcbd d928 14be a054 4e3c
00000170: 5d16 96bd 05fb 4abe 2321 9ebc 61ba a83e
00000180: e2aa 4ebd fe41 5dbe 215a 113c 4cf0 cb3d
00000190: 77bc 743e befe aebe fce3 b93d 8ed3 063e
000001a0: c3e4 59bd 5da1 acbe 00fa 433e f84b 673d
000001b0: 50a7 f9bd 349f f23c 9ca8 f03c 0f91 08be
000001c0: 941c a4be 5008 f3bd 866b 513e fc33 253e
000001d0: baf1 22be 0851 063e 33ab 353d 6d54 f53d
000001e0: d20f f03b add6 46be 412f 05be 7cf8 9cbc
000001f0: 98ec 4ebe 5aed 15be 187a cb3d 4667 44bd
00000200: 3677 023d d015 3ebd 5fc6 723e 1a66 39be
00000210: c18a 55be 0c41 823e 4d91 2fbd f30b b1bd
00000220: d9c3 f83d 0f27 b2ba eb54 503e 56d8 84be
00000230: 2b7c 823e 28a7 bc3e 5df4 7bbe 6cc5 abbe
00000240: a480 86bd 95d5 7e3e aff3 d53e d752 25bd
00000250: 0ae0 8ebc cba7 853d 11f7 b5be 4380 463e
00000260: a5e6 d3bd e3b7 4fbe 1d94 fbbd 7e0c 2ebd
00000270: 5c8a 593c 10ed dfbd 8911 11be 16a0 f73c
00000280: 70fa 57be 619f 943e fc58 20bd 4751 08bd
00000290: 5220 c93d d372 093e 9ebc e03c 2d3a 8a3e
000002a0: db3e c3bd 4319 17be 7801 883c 0c92 04be
000002b0: 29a5 c6be 57e5 c0bd c837 86be 81bf 22bc
000002c0: 8f3a 6abe 5e30 ed3d f2c9 c83e 0b67 b1bd
000002d0: 93a2 a23e 5e72 a63e afe2 393d 3be7 83be
000002e0: 8a31 81bd e378 a2be 8196 cc3d 5cfa 5ebe
000002f0: 9214 34be 2dd0 543d 59f4 393e e3a9 d03d
00000300: a689 8bbc 2961 bbbd 933e 8fbd 0199 8fbe
00000310: 495a 0e3f 18c3 dbbe ef69 34be aa82 023d
00000320: e1de 5d3e 4bae 01bf 55b7 4ebe 37c4 153f
00000330: aad3 0fbe 1353 613d f1ac 87be cebe a8be
00000340: 4c6f 413e bd77 223d 2f8f 923e e70b 96bd
00000350: b15e 943e 5a41 35be a012 963e 9342 3cbd
00000360: 3401 803e 725f d6be 5e83 313e 03be af3c
00000370: 49cd eb3e 8e3f 803d 9c14 57be 4dee 9d3b
00000380: 69ae 2b3d aa52 a2bd 7ac9 003e bdda fb3c
00000390: 56be 853e 4a14 0dbe aaae 103a d3b5 01be
000003a0: e0b2 3dbd b586 eebe 7429 92be 09e2 a93d
000003b0: c13a a63d 79d3 703b d802 b0be 1c28 87be
000003c0: 902d 12be b65c 293e c010 a1bc 1e75 2fbe
000003d0: a3f4 683e cf7f 4abd 7047 923d c661 3fbe
000003e0: 9118 e9bd db12 71be fc88 abbe ab65 303d
000003f0: 0228 463e c2a3 54bd ed0e b43c b054 c83d

rnn.bias_ih_l1 f4 [48]
0.12575108 0.11774963 0.24128038 -0.14589223 -0.028077077 0.0065644383 0.0063001886 0.10914916
0.18627134 -0.04171529 0.19250727 0.27073252 0.42301804 0.26246932 0.51441693 0.3141809
0.02162461 0.124605455 -0.31464124 -0.2858349 -0.54676294 -0.36803955 -0.038341634 -0.37001315
-0.17142381 -0.17264046 -0.3296089 -0.089989126 -0.24043126 -0.042183574 -0.10376088 -0.15670621
-0.08345424 -0.18243003 0.2506989 -0.054922633 0.074416764 -0.09635147 0.061066024 0.14438927
0.0230677 -0.04457328 -0.09341377 -0.07947687 -0.13179362 0.06648964 -0.1792019 0.027933229
00000000: e4c4 003e b826 f13d 3412 773e c664 15be
00000010: e601 e6bc 801a d73b d071 ce3b 9889 df3d
00000020: eabd 3e3e a7dd 2abd a020 453e 749d 8a3e
00000030: d295 d83e 6162 863e d4b0 033f 52dc a03e
00000040: 1826 b13c 2531 ff3d a818 a1be f458 92be
00000050: a8f8 0bbf ae6f bcbe 1e0c 1dbd 5d72 bdbe
00000060: b989 2fbe a9c8 30be 7fc2 a8be 384c b8bd
00000070: 9d33 76be afc8 2cbd 9680 d4bd 9877 20be
00000080: 0eea aabd f0ce 3abe 9b5b 803e 8ef6 60bd
00000090: d167 983d eb53 c5bd 5e20 7a3d c8da 133e
000000a0: 79f8 bc3c 7992 36bd b84f bfbd c5c4 a2bd
000000b0: e8f4 06be b82b 883d b480 37be 3ad4 e43c

rnn.bias_hh_l1 f4 [48]
0.27179396 0.05728287 -0.046527077 0.3165928 0.10181705 0.1831389 0.16775215 0.045801356
0.18231957 0.093477204 0.19297452 0.32872698 0.26874393 -0.028310709 0.32881704 0.31372362
-0.088632666 -0.036179632 -0.55373466 -0.41658235 -0.30846167 -0.5121667 0.051246185 -0.2409158
-0.20969425 0.17474315 -0.40708858 -0.16409482 -0.54516244 0.13052233 0.20995179 0.07481591
0.08544825 0.23384963 0.3570616 0.28693336 0.19917756 -0.14923587 -0.061214574 0.071160704
-0.15904817 0.069044195 0.11729794 0.0851031 0.30277127 0.019721642 -0.18242298 -0.13513386
00000000: 9428 8b3e 71a1 6a3d 2d93 3ebd 7418 a23e
00000010: 7585 d03d c488 3b3e 38c7 2b3e 349a 3b3d
00000020: fbb1 3a3e fa70 bf3d 1d9b 453e e74e a83e
00000030: ce98 893e dceb e7bc b55a a83e 62a0 a03e
00000040: 0b85 b5bd 1831 14bd 8ec1 0dbf 484a d5be
00000050: b0ee 9dbe 5b1d 03bf 85e7 513d a2b2 76be
00000060: 17ba 56be deef 323e ea6d d0be 7908 28be
00000070: c48f 0bbf a5a7 053e 9afd 563e 1539 993d
00000080: 7eff ae3d 4776 6f3e c7d0 b63e eee8 923e
00000090: 34f5 4b3e 4ad1 18be 22bc 7abd b4bc 913d
000000a0: 86dd 22be 0b67 8d3d e739 f03d 894a ae3d
000000b0: d604 9b3e 488f a13c 17cd 3abe 8860 0abe

rnn.weight_ih_l1_reverse f4 [48, 32]
-0.11753287 -0.20256735 -0.15050232 -0.031183267 0.10802894 0.47054487 -0.25263974 -0.16239628
-0.19279309 0.18291773 -0.050963145 0.32507944 -0.061508447 -0.023952682 -0.19145933 0.50294244
-0.061875284 0.13064295 0.15473968 0.0151355555 -0.015942186 0.11668912 0.10755614 -0.37960204
-0.2318459 0.050349023 0.3053008 -0.2965783 -0.11131008 -0.05433833 -0.09111883 -0.13445689
-0.31846637 -0.2339401 -0.070360065 0.16309857 -0.06820425 -0.052815065 0.044522442 -0.14018835
0.13071953 -0.020372277 -0.14338017 0.10001184 0.056666195 0.07111341 -0.12576465 -0.15605742
0.06169359 0.124858655 -0.22109213 0.38435218 0.015257114 -0.28531626 -0.12366593 -0.106773645
-0.044615205 0.46193674 0.035796378 -0.29722208 -0.29275638 -0.36971447 0.22114515 -0.139147
0.019156734 -0.53842497 -0.38462323 0.12037017 -0.3809997 0.20480818 0.20125629 -0.034035917
-0.3499704 0.0428513 0.30837658 0.0027254361 0.23493636 -0.14032699 -0.27875152 0.20220664
0.14471829 0.19266964 -0.06954394 -0.054457776 -0.114095785 0.11951562 -0.1252615 0.2380612
0.025617126 0.024622574 -0.10290928 -0.006592151 -0.08972924 -0.083147615 -0.08895137 -0.03460987
-0.019346602 -0.03667522 0.1066534 -0.19219382 0.019344592 -0.288657 0.06219544 0.03975407
0.20341098 -0.35912192 0.041451965 -0.0078822905 -0.31130442 -0.43296242 0.25702593 -0.50927836
0.30133402 -0.036521487 -0.17534004 -0.3189983 0.2247737 -0.03853284 -0.20350574 -0.06530316
-0.08709356 0.026983868 -0.085018426 0.20191151 -0.22992246 -0.35513246 0.3339947 0.14374447
0.27498192 0.107511744 0.083250985 0.095023684 -0.4677885 0.15293272 -0.19544189 -0.1137661
-0.2929485 0.0688371 -0.120413326 -0.0022006882 -0.15824969 -0.032612495 0.009263954 -0.19570252
0.21478845 0.26721203 0.17733768 0.0011474403 0.013800515 -0.40793952 -0.20447281 0.2192294
0.028649474 0.23092152 0.30115148 0.16981767 0.073686324 -0.32373482 0.021108257 0.2695716
-0.079321764 0.3170579 0.35109448 -0.15407676 -0.043456998 0.16665076 -0.14164537 -0.12665176
0.462087 0.0080801835 0.22358051 0.12263463 -0.058260057 0.103725396 0.18177064 -0.46426338
-0.24908881 0.27406776 0.2383728 -0.022232015 -0.2651116 -0.011014327 0.22080183 0.47629339
-0.05619098 -0.24892314 0.09299652 0.15407477 0.15993877 -0.14807872 -0.25042182 0.08879393
-0.119579785 -0.066696756 0.5442301 0.15168332 0.0019096608 0.4272556 0.22949858 0.12048346
-0.23756224 -0.13450044 -0.028005049 -0.190465 -0.08812388 0.19327326 0.15807524 -0.5577867
0.4542576 -0.12672743 0.15194044 0.17731795 -0.12989508 0.13143764 -0.35350183 0.4824402
-0.044761863 -0.0017675327 -0.13319723 0.17991361 0.19205417 -0.29473728 -0.06864883 -0.07393359
-0.2987115 -0.104561694 -0.48034182 -0.14664872 0.086021796 -0.106862836 -0.1737816 -0.35263053
-0.12470334 -0.2688468 -0.29718453 -0.08261006 0.4133225 -0.06657222 -0.4002538 0.529494
0.38811812 0.2606881 -0.050578054 -0.45078713 0.4800964 -0.33896017 0.14854696 -0.3419068
0.08593386 -0.043527827 0.31974325 -0.022872783 -0.103736795 -0.3693584 0.27971327 0.07100136
00000000: 13b5 f0bd d16d 4fbe 481d 1abe 0d74 ffbc
00000010: 473e dd3d 42eb f03e ff59 81be 364b 26be
00000020: 8d6b 45be c94e 3b3e bbbe 50bd d070 a63e
00000030: 48f0 7bbd 6a38 c4bc ea0d 44be d6c0 003f
00000040: f070 7dbd 44c7 053e 1474 1e3e 1ffb 773c
00000050: 3099 82bc b5fa ee3d 6546 dc3d 335b c2be
00000060: 0369 6dbe c73a 4e3d 6350 9c3e 1cd9 97be
00000070: 8af6 e3bd de91 5ebd 829c babd 11af 09be
00000080: 060e a3be fe8d 6fbe f018 90bd 5003 273e
00000090: abae 8bbd 9c54 58bd 2a5d 363d 898d 0fbe
000000a0: 57db 053e c3e3 a6bc 40d2 12be 02d3 cc3d
000000b0: d01a 683d e8a3 913d 73c8 00be 84cd 1fbe
000000c0: 6bb2 7c3d e5b5 ff3d fa65 62be cfc9 c43e
000000d0: f9f8 793c f914 92be 9044 fdbd 24ac dabd
000000e0: 6fbe 36bd f982 ec3e 399f 123d 7e2d 98be
000000f0: 2ae4 95be 374b bdbe e073 623e 8d7c 0ebe
00000100: 95ee 9c3c 38d6 09bf 56ed c4be a384 f63d
00000110: 6512 c3be 3cb9 513e 2116 4e3e 3f69 0bbd
00000120: 522f b3be d884 2f3d 89e3 9d3e 3b9d 323b
00000130: 2893 703e e1b1 0fbe 85b8 8ebe 420f 4f3e
00000140: 0831 143e 314b 453e 0e6d 8ebd 1e0f 5fbd
00000150: 0dab e9bd 9bc4 f43d 8d44 00be 51c6 733e
00000160: 02db d13c 48b5 c93c 1ac2 d2bd f802 d8bb
00000170: f7c3 b7bd 4c49 aabd 232c b6bd 14c3 0dbd
00000180: c47c 9ebc c138 16bd 196d da3d 75ce 44be
00000190: 8d78 9e3c daca 93be a5c0 7e3d 2ad5 223d
000001a0: f84a 503e d4de b7be 89c9 293d b924 01bc
000001b0: 4b63 9fbe 40ad ddbe e798 833e 1160 02bf
000001c0: 7448 9a3e 8e97 15bd 578c 33be bf53 a3be
000001d0: 142b 663e 9cd4 1dbd cf63 50be aabd 85bd
000001e0: 1c5e b2bd 460d dd3c 241e aebd e4c1 4e3e
000001f0: cb70 6bbe ecd3 b5be 5a01 ab3e c031 133e
00000200: 6eca 8c3e 1e2f dc3d 7e7f aa3d c79b c23d
00000210: f981 efbe 659a 1c3e eb21 48be 33fe e8bd
00000220: 59fd 95be 77fa 8c3d 439b f6bd 6c39 10bb
00000230: 350c 22be ae94 05bd d7c7 173c 3e66 48be
00000240: 81f1 5b3e 04d0 883e 0298 353e b565 963a
00000250: 8e1b 623c 73dd d0be 5261 51be ac7d 603e
00000260: 4db2 ea3c b176 6c3e 8730 9a3e afe4 2d3e
00000270: dbe8 963d 92c0 a5be 39eb ac3c 4a05 8a3e
00000280: 7373 a2bd 6a55 a23e a8c2 b33e 4cc6 1dbe
00000290: f7ff 31bd 7fa6 2a3e 7c0b 11be 00b1 01be
000002a0: ab96 ec3e bf62 043c 4af2 643e dd27 fb3d
000002b0: 19a2 6ebd fb6d d43d 1522 3a3e eeb3 edbe
000002c0: 2311 7fbe 9c52 8c3e 0018 743e ea1f b6bc
000002d0: b5bc 87be 7075 34bc e019 623e badc f33e
000002e0: 8328 66bd b5e5 7ebe f674 be3d c7c5 1d3e
000002f0: fdc6 233e f3a1 17be 4a37 80be 98d9 b53d
00000300: 3fe6 f4bd 4f98 88bd aa52 0b3f df52 1b3e
00000310: 954d fa3a 3fc1 da3e ad01 6b3e 08c0 f63d
00000320: 8443 73be 7cba 09be d86a e5bc 4209 43be
00000330: 4b7a b4bd 6de9 453e 7ade 213e 1ccb 0ebf
00000340: 7494 e83e d6c4 01be 4696 1b3e d692 353e
00000350: 3703 05be 9797 063e 31fe b4be 6702 f73e
00000360: 3758 37bd 8eac e7ba db64 08be 463b 383e
00000370: d9a9 443e cee7 96be c297 8cbd 7e6a 97bd
00000380: b7f0 98be 7124 d6bd 5def f5be 152b 16be
00000390: 322c b03d e7da dabd cef3 31be fd8b b4be
000003a0: 7764 ffbd 4aa6 89be 9228 98be 772f a9bd
000003b0: 029f d33e 0457 88bd 11ee ccbe eb8c 073f
000003c0: 6bb7 c63e e978 853e ef2a 4fbd 92cd e6be
000003d0: 32cf f53e 308c adbe b21c 183e 680e afbe
000003e0: 17fe af3d 3c4a 32bd 63b5 a33e b45f bbbc
000003f0: f573 d4bd 8b1c bdbe 9436 8f3e 2969 913d

rnn.weight_hh_l1_reverse f4 [48, 16]
-0.30473092 -0.23244779 -0.2533927 0.13917537 0.00028426413 -0.1567734 0.043049175 0.20840365
-0.11586829 -0.055729546 0.14245214 0.20027004 -0.2830294 0.16867025 -0.39174172 0.08756077
0.13859957 0.03285782 -0.06079257 -0.13812457 -0.16956761 -0.11661953 -0.031117948 0.16867046
-0.021517731 -0.097979315 -0.06756372 0.05345001 -0.16015388 0.057374816 0.06488591 0.16035458
-0.06347438 0.077414796 0.08086439 -0.057289466 0.07454727 -0.15896405 0.07819656 0.49628606
0.21733403 -0.14695357 0.13844986 -0.10166691 -0.17008036 0.11370679 -0.18552472 -0.36778355
-0.35930336 0.5998973 -0.2684379 -0.28530967 0.074722685 0.13857518 -0.046560466 0.042699534
0.21742034 -0.06843664 0.2975416 -0.1981299 0.017859293 -0.39035574 -0.1495611 0.24042921
-0.18856107 -0.04516454 0.113729924 -0.28622678 0.32445237 -0.050805982 0.13269079 -0.0024990565
0.35320845 -0.11859938 -0.39609525 -0.31946984 -0.31138632 -0.013133995 -0.21961623 0.063079216
0.5730564 0.029011115 0.2756121 -0.12306043 0.09234266 0.32724467 -0.12944655 -0.032961894
0.0118823275 -0.55230534 -0.010187862 0.23343319 -0.18484738 -0.10885357 0.259772 -0.10622036
-0.13755086 -0.12516032 0.22957832 -0.13780163 0.21337035 0.22231363 -0.029368885 0.2207822
-0.045154113 -0.22558488 0.28043813 -0.23135202 0.3783825 -0.13459839 0.22106755 0.08134917
-0.27113163 0.015295568 -0.41893488 -0.50401676 0.33990434 -0.69379234 0.4664305 -0.108047135
-0.19640921 -0.4460384 -0.2222561 -0.49551633 0.10921192 -0.069659404 0.0042300075 -0.09212362
-0.054044023 0.08420078 -0.27496174 -0.13557218 -0.17808902 -0.19551398 -0.25023592 0.5699151
-0.06804586 -0.23182303 -0.11731615 0.24065156 -0.012899506 0.30853066 -0.13208796 -0.05784719
-0.14774892 0.043818034 -0.05888133 -0.033063523 0.31828535 0.3242044 0.21190515 -0.3234163
0.062372804 0.15576418 -0.12322295 -0.2846291 -0.090788744 -0.28357098 0.036009513 0.35003942
0.058872465 -0.111154355 -0.050049633 0.320716 -0.105902925 -0.23627992 -0.44838342 0.3197181
0.21160872 0.21255344 0.025696078 0.25591657 0.3226865 0.07797531 0.17859851 0.13757122
-0.16492172 0.11939532 -0.09212649 -0.17353685 -0.03829578 -0.16435564 -0.17065133 0.3985239
-0.21032174 -0.41576025 0.26789895 -0.26749146 -0.18254842 0.18170203 0.024448682 -0.22036579
-0.039083313 0.07462073 0.03870385 0.20154767 0.21144073 0.05126655 0.14605327 -0.16253658
0.13832599 -0.0768938 0.096962385 -0.30253047 0.120820686 0.07094166 -0.116510846 -0.12336807
0.6990297 -0.114871055 0.4911839 0.08920726 -0.117365256 0.35712785 0.32431772 -0.11498096
-0.16696101 -0.038361434 -0.68207514 0.37817663 -0.075742945 -0.5553485 0.30639386 0.13727494
-0.15742145 0.34453163 -0.18563247 0.093152024 0.20289503 -0.28747955 -0.11192761 0.530301
0.007810571 -0.44010237 -0.28520304 0.12902994 0.07180361 0.42709643 -0.18357576 -0.5073641
0.020077169 -0.2546969 0.16700915 -0.3085342 0.27109936 -0.148843 0.029367063 0.48066428
0.22568876 0.017533677 -0.2582018 0.18097366 0.06924849 -0.16840261 0.013992412 -0.15495974
00000000: b105 9cbe cb06 6ebe b0bc 81be fd83 0e3e
00000010: 4909 9539 3589 20be 5554 303d c467 553e
00000020: 5b4c edbd aa44 64bd f9de 113e 9713 4d3e
00000030: 3be9 90be e5b7 2c3e 5f92 c8be 1053 b33d
00000040: 0ced 0d3e ec95 063d a101 79bd 8770 0dbe
00000050: 22a3 2dbe 38d6 eebd 11eb febc f3b7 2c3e
00000060: f445 b0bc 61a9 c8bd d95e 8abd 66ee 5a3d
00000070: 61ff 23be db01 6b3d e7e2 843d fe33 243e
00000080: dbfe 81bd a68b 9e3d 3b9c a53d 5ca8 6abd
00000090: 3dac 983d 79c7 22be 8525 a03d 3519 fe3e
000000a0: d08c 5e3e ff7a 16be cdc5 0d3e be36 d0bd
000000b0: 8c29 2ebe 1bdf e83d 31fa 3dbe 204e bcbe
000000c0: 9cf6 b7be df92 193f b170 89be 1c14 92be
000000d0: 3508 993d a7e6 0d3e 30b6 3ebd b5e5 2e3d
000000e0: 70a3 5e3e 8228 8cbd 5f57 983e 91e2 4abe
000000f0: a74d 923c b5dc c7be 8c26 19be 1333 763e
00000100: 2716 41be 74fe 38bd 3ceb e83d 518c 92be
00000110: 9f1e a63e ef19 50bd 18e0 073e 36c7 23bb
00000120: bdd7 b43e 3be4 f2bd ffcc cabe 8d91 a3be
00000130: 076e 9fbe f82f 57bc 14e3 60be ad2f 813d
00000140: d3b3 123f b8a8 ed3c 071d 8d3e 1b07 fcbd
00000150: 261e bd3d 9d8c a73e a38d 04be 0d03 07bd
00000160: 18ae 423c e263 0dbf feea 26bc 1c09 6f3e
00000170: a248 3dbe 9fee debd d600 853e 0f8a d9bd
00000180: 22da 0cbe 072a 00be 9416 6b3e df1b 0dbe
00000190: c27d 5a3e 2fa6 633e 0497 f0bc bb14 623e
000001a0: 85f3 38bd b9ff 66be 9695 8f3e 8be7 6cbe
000001b0: 5abb c13e 29d4 09be 885f 623e 659a a63d
000001c0: c4d1 8abe 439a 7a3c a27e d6be 3e07 01bf
000001d0: f107 ae3e 609c 31bf facf ee3e d147 ddbd
000001e0: 7f1f 49be 255f e4be 1a97 63be 51b4 fdbe
000001f0: 80aa df3d 97a9 8ebd e09b 8a3b 4fab bcbd
00000200: 445d 5dbd 7571 ac3d c9c7 8cbe 6fd3 0abe
00000210: f85c 36be d134 48be ec1e 80be f5e5 113f
00000220: a15b 8bbd 0463 6dbe 7343 f0bd 5d6d 763e
00000230: 7358 53bc bbf7 9d3e 1142 07be 2df1 6cbd
00000240: 7e4b 17be 8a7a 333d 8d2d 71bd 9e6d 07bd
00000250: 4cf6 a23e 1efe a53e aafd 583e d296 a5be
00000260: a07a 7f3d a580 1f3e 505c fcbd e8ba 91be
00000270: 73ef b9bd 3730 91be b67e 133d 5e38 b33e
00000280: 4124 713d e5a4 e3bd d800 4dbd e334 a43e
00000290: a2e3 d8bd 5df3 71be 8392 e5be 17b2 a33e
000002a0: f5af 583e 9ca7 593e 9580 d23c 7f07 833e
000002b0: 2a37 a53e 85b1 9f3d 87e2 363e 78df 0c3e
000002c0: 3de1 28be 8985 f43d d0ac bcbd a5b3 31be
000002d0: 09dc 1cbd d84c 28be 39bf 2ebe 530b cc3e
000002e0: 955e 57be 87de d4be 0d2a 893e a4f4 88be
000002f0: f9ed 3abe 1910 3a3e 9a48 c83c 92a7 61be
00000300: d315 20bd c1d2 983d ee87 1e3d 8362 4e3e
00000310: eb83 583e e0fc 513d fd8e 153e fd6f 26be
00000320: 54a5 0d3e 7f7a 9dbd 3794 c63d 46e5 9abe
00000330: d670 f73d dc49 913d 3d9d eebd 66a8 fcbd
00000340: 9cf3 323f 8441 ebbd 757c fb3e 4cb2 b63d
00000350: 325d f0bd 76d9 b63e f90c a63e 237b ebbd
00000360: d4f7 2abe e120 1dbd 7a9c 2ebf 5ea0 c13e
00000370: 1e1f 9bbd 522b 0ebf a8df 9c3e cd91 0c3e
00000380: 1733 21be 7366 b03e 7016 3ebe 7dc6 be3d
00000390: b7c3 4f3e 8530 93be 4e3a e5bd cec1 073f
000003a0: d2ef ff3b 1955 e1be 2206 92be 6d20 043e
000003b0: c50d 933d 62ac da3e 49fb 3bbe 9de2 01bf
000003c0: e078 a43c a267 82be 7204 2b3e 32f8 9dbe
000003d0: 89cd 8a3e 4d6a 18be 3293 f03c a119 f63e
000003e0: f41a 673e c9a2 8f3c 0733 84be 2951 393e
000003f0: 27d2 8d3d bc71 2cbe 6e40 653c c4ad 1ebe

rnn.bias_ih_l1_reverse f4 [48]
0.109360546 -0.075750604 -0.016784487 0.17118303 0.25566834 0.11576582 0.21653835 0.07835791
-0.0633552 0.20795771 0.18687414 0.084753685 -0.0036098904 -0.30105147 0.31365097 -0.004523192
-0.43101344 -0.07745845 -0.13204165 -0.07577737 0.34426928 -0.006656311 -0.65969974 0.021272512
0.04248032 -0.4552893 -0.121235825 -0.009906255 -0.109924056 0.23886344 0.12846321 -0.21301664
0.010228116 0.066993915 -0.054437645 0.15056881 -0.1671105 -0.20800921 0.028886639 -0.074422374
0.22515185 0.015029704 -0.10725758 -0.24986146 -0.17594583 0.25092384 0.16751 0.02992348
00000000: 6cf8 df3d 2223 9bbd 9f7f 89bc 9b4a 2f3e
00000010: f6e6 823e a116 ed3d 3bbc 5d3e 1d7a a03d
00000020: 5fc0 81bd def2 543e ef5b 3f3e 5793 ad3d
00000030: e993 6cbb 6b23 9abe dc96 a03e 4937 94bb
00000040: cbad dcbe 89a2 9ebd ed35 07be 2a31 9bbd
00000050: 1044 b03e 2f1d dabb 15e2 28bf b143 ae3c
00000060: d8ff 2d3d ae1b e9be 7d4a f8bd d84d 22bc
00000070: dd1f e1bd 9e98 743e dc8b 033e 0921 5abe
00000080: d493 273c 1b34 893d 02fa 5ebd b62e 1a3e
00000090: 041f 2bbe 5e00 55be aca3 ec3c c26a 98bd
000000a0: 358e 663e 263f 763c dda9 dbbd afdb 7fbe
000000b0: 252b 34be 1779 803e be87 2b3e 1622 f53c

rnn.bias_hh_l1_reverse f4 [48]
-0.016396107 -0.08950846 -0.043022342 0.29917085 0.15406834 0.2481786 0.25714424 0.10827773
-0.13795711 0.16660897 0.22609104 0.3668757 0.34462422 0.095053576 0.2492275 0.00918911
-0.39880502 -0.5038287 0.07104323 0.08657557 0.34321934 0.11728773 -0.32608598 -0.40761697
0.07168352 -0.49676752 0.19866063 0.16864337 0.2053026 -0.06096194 -0.15620027 0.20203659
-0.27601567 0.27316082 0.0125289615 -0.09487128 -0.08555396 0.12816957 -0.14503619 0.010196428
-0.111335486 0.091668345 -0.032609437 -0.07062047 -0.22426476 -0.07837077 0.0624127 0.045298632
00000000: 2151 86bc 3650 b7bd 3238 30bd ec2c 993e
00000010: 17c4 1d3e 8822 7e3e 69a8 833e b7c0 dd3d
00000020: a144 0dbe 8b9b 2a3e 6984 673e 22d7 bb3e
00000030: 9672 b03e 73ab c23d 7e35 7f3e ec8d 163c
00000040: 2c30 ccbe ebfa 00bf 1d7f 913d 884e b13d
00000050: 72ba af3e 8d34 f03d bef4 a6be 2cb3 d0be
00000060: cfce 923d 5058 febe b16d 4b3e d9b0 2c3e
00000070: d83a 523e 3ab3 79bd f7f2 1fbe aee2 4e3e
00000080: ed51 8dbe bcdb 8b3e 4646 4d3c e04b c2bd
00000090: ea36 afbd e23e 033e 5e84 14be eb0e 273c
000000a0: dc03 e4bd 9dbc bb3d 7991 05bd 77a1 90bd
000000b0: a9a5 65be db80 a0bd 76a4 7f3d 0f8b 393d
